kaggle_assignment/models/pytorch_reg_pm2_5.pt (torch, 43283 bytes, 3 tensors)

weight f4 [128, 78]
000000 c3 61 38 3c 69 e9 ca 3d 1e 55 b8 bc 32 96 6d bc
       0.011253777 0.09907801 -0.022501525 -0.014501141
000010 5c 21 16 be cd 2d 61 bd a6 3f f5 bd 36 42 d8 3e
       -0.14661163 -0.05497532 -0.119750306 0.42238015
000020 72 b1 95 3e bd e2 e0 3e c8 b7 bf 3e d2 53 80 3e
       0.29236943 0.43922988 0.374449 0.2506395
000030 68 c1 a6 3e ad b5 65 3e 33 cd 94 3e df 80 a7 3e
       0.32569432 0.22432585 0.29062805 0.32715508
000040 f9 69 dc 3e c9 5d 6b 3e e2 58 d6 3e 3b 39 87 3e
       0.430496 0.22984995 0.41864687 0.2641085
000050 44 ca 98 3e ad bf 52 3e 1b df 44 3e c6 89 bb 3e
       0.29841816 0.20580931 0.19225733 0.3662855
000060 2e 1b 48 3e 36 ac 37 3e 6d 3a b4 3e be 81 6a 3e
       0.19541618 0.17936787 0.35200825 0.22901055
000070 b4 35 0e 3e b0 15 b0 3e d8 01 3b 3e 25 c7 32 3e
       0.13887674 0.34391546 0.18262422 0.1745878
000080 28 bb 92 3e f2 67 7d 3e aa cd 2a 3e d8 64 9f 3e
       0.28658414 0.24746683 0.16680017 0.31131625
000090 93 1b 93 3e 2b 8d 95 3e 86 d7 4b 3e f4 5b 4e 3e
       0.28731975 0.29209265 0.19906434 0.20152265
0000a0 2c d2 0f 3e 66 05 a7 3e eb 64 6b 3e f7 fb 8e 3e
       0.14045018 0.32621306 0.22987716 0.2792661
0000b0 a0 b6 5b 3e 01 8b 72 3e 6a 4c 90 3e 65 db bd 3e
       0.21456385 0.23685838 0.281833 0.37081447
0000c0 28 78 c4 3e 58 98 b2 3e c0 ea 80 3e 01 0b 85 3e
       0.38372922 0.34881854 0.251791 0.25984958
0000d0 fd 84 8f 3e 44 5c 80 3e 5c 42 56 3e 0e 41 95 3e
       0.2803115 0.25070393 0.20923752 0.29151195
0000e0 4d 57 92 3e d7 0f 44 3e b2 ac 94 3e a9 84 ad 3e
       0.2858223 0.19146667 0.29038006 0.33890274
0000f0 49 b2 d6 3e d9 7f 7c 3e a5 6e 96 3e 35 8b 91 3e
       0.41932896 0.24658145 0.2938129 0.2842652
000100 2a 1a a7 3e 85 7f a8 3e 3b dc c5 3e c9 0a 52 3e
       0.3263715 0.3290979 0.38644585 0.20511927
000110 b8 1a 67 3e 78 1e 6a 3e 34 4a ae 3e 5b 31 3f 3e
       0.22568786 0.22863185 0.34040987 0.18671171
000120 6c 1d a1 3e ee a5 84 3e c3 23 f6 3e 2f 29 d8 3e
       0.3146776 0.25907844 0.4807416 0.4221892
000130 72 f1 b8 3e f6 c3 fe 3e f7 f4 e7 bb 93 41 90 3e
       0.36121708 0.4975888 -0.0070787626 0.2817503
000140 56 8b 28 3e a6 49 69 be 1c 98 97 be e3 21 de be
       0.16459402 -0.22782001 -0.29608238 -0.4338523
000150 d0 61 96 3d 51 9c 93 3e ca be ac 3e 81 65 f3 3e
       0.07342875 0.28830197 0.3373931 0.4753838
000160 f8 fd c6 3e d7 cc 85 3e 0e e0 cb 3e 0f 06 a3 3e
       0.38865638 0.26132843 0.39819378 0.3184056
000170 b4 f1 6f 3e ac 1d 74 3e 22 e4 d5 3e ba 42 94 3e
       0.23432046 0.23839444 0.41775614 0.28957158
000180 67 f4 b0 3e 1f 32 c2 3e bd 1c 50 3e be 49 7f 3e
       0.34561464 0.37928864 0.20323463 0.24930474
000190 d8 25 bd 3e ee 20 c6 3e 3c 62 c5 3e 99 17 f2 3d
       0.36942935 0.38696998 0.3855151 0.11820907
0001a0 20 ca 68 3e 85 e8 3e 3e b1 09 b3 3e 78 17 b8 3e
       0.22733355 0.18643387 0.3496833 0.35955405
0001b0 4b fd 3c 3e 26 fd 7b 3e 55 8d b9 3e 5e 77 bb 3e
       0.18455999 0.24608287 0.3624064 0.36614507
0001c0 18 06 1b 3e 08 35 5a 3e 7b 4d 93 3e 46 98 d1 3e
       0.15139043 0.21309292 0.2877005 0.40936488
0001d0 03 fa 89 3e 6b f4 8d 3e 93 b7 af 3e 46 8b 40 3e
       0.26948556 0.2772554 0.34319744 0.18803129
0001e0 ad b2 72 3e d2 39 7c 3e d8 cb 8f 3e ca 8c 94 3e
       0.23700972 0.24631432 0.28085208 0.29013664
0001f0 a0 f4 a4 3e e0 1a 93 3e ef bb 13 3e 3e 22 a1 3e
       0.32217884 0.28731441 0.1442716 0.31471437
000200 cf 74 a5 3e fd d3 43 3e a0 65 7b 3e 8e 24 25 3e
       0.3231568 0.19123836 0.24550486 0.16127226
000210 0d 29 c8 3e 6a 23 a4 3e f7 b4 4f 3e ee bd cf 3e
       0.3909382 0.3205827 0.20283876 0.40574592
000220 c7 e0 69 3e 67 1d 9f 3e d8 9a bf 3e dd e9 88 3e
       0.22839652 0.3107712 0.37422824 0.26740924
000230 ef 1d 90 3e 94 5a 64 3e 13 d2 e8 3e a1 9a 8f 3e
       0.28147838 0.22300178 0.45472774 0.2804766
000240 b5 c1 93 3e d1 63 31 3e e4 7e a8 3e 85 2b 8f 3e
       0.28858724 0.17323233 0.3290931 0.2796289
000250 1d 11 a5 3e d1 81 ba 3e c9 e7 c3 3e d9 85 67 3e
       0.3223962 0.36427167 0.38262776 0.22609653
000260 00 58 0e 3f 3d c9 d9 3e 31 57 e2 3e f0 02 06 3f
       0.5560303 0.42536345 0.44207147 0.5234823
000270 f3 92 f3 bd cc 20 40 3e fa 12 43 3e 14 fa 69 be
       -0.11893263 0.18762511 0.19050208 -0.22849303
000280 33 0d 27 be c3 f2 1c bf 5e 52 b4 3d 02 86 07 3f
       -0.16313629 -0.61307925 0.08804773 0.52938855
000290 df b4 f4 3e c3 41 e8 3e 8c e2 05 3f d9 9f 89 3e
       0.47794244 0.45362672 0.5229881 0.26879767
0002a0 4e c9 a9 3e 53 bb 2f 3e 4a aa e1 3e 5f 9c 3d 3e
       0.33161396 0.17161302 0.44075233 0.18516682
0002b0 4a 4f c4 3e 92 00 ef 3e e1 6c 75 3e ed 7b 45 3e
       0.38341743 0.46680123 0.23967315 0.19285555
0002c0 7b 2d c3 3e 09 6d 81 3e 1b 5c a5 3e 15 60 4f 3e
       0.38120636 0.252785 0.32296833 0.20251496
0002d0 9e 8f a1 3e c9 ee 6a 3e 51 86 82 3e 65 e2 74 3e
       0.31554884 0.22942652 0.254931 0.23914488
0002e0 26 3b 83 3e 3e e7 29 3e 9b 4e 7e 3e 73 af 78 3e
       0.25631064 0.16592118 0.24834673 0.24285679
0002f0 5a 44 8b 3e ad 83 8c 3e 21 99 cf 3e d8 a8 70 3e
       0.27200586 0.2744421 0.40546516 0.23501909
000300 40 a2 80 3e 46 c3 a2 3e 65 3f b1 3e c6 4a 4a 3e
       0.25123787 0.31789607 0.3461868 0.19755086
000310 45 b8 9b 3e 3b 94 b3 3e 83 4e c2 3e 97 1d c0 3e
       0.30414024 0.35074028 0.37950525 0.37522575
000320 7d 1c c9 3e 31 b2 a4 3e ce da c4 3e bf d1 ca 3e
       0.39279547 0.321672 0.38448185 0.3961315
000330 43 c4 6e 3e 8b b2 cd 3e 2f 2c 96 3e f6 3c 6f 3e
       0.23317055 0.4017528 0.29330584 0.23363099
000340 3a 53 83 3e 8c 22 da 3e 0a d5 a3 3e 3d 11 86 3e
       0.25649434 0.42604482 0.31998473 0.26185027
000350 29 91 86 3e 2f 7b 88 3e 3a 2c 71 3e fd 87 95 3e
       0.26282623 0.26656482 0.23552027 0.29205313
000360 60 42 57 3e 5f 0b ac 3e 9e 92 c0 3e 81 01 a0 3e
       0.21021414 0.33602425 0.3761186 0.31251147
000370 b2 c9 80 3e 6b f0 9d 3e c0 a7 34 3e 9e 92 b7 3e
       0.2515388 0.30847487 0.17642117 0.35854048
000380 c7 eb 93 3e 38 7a 82 3e 6c 8f d8 3e e7 b0 99 3e
       0.2889082 0.2548387 0.42296922 0.30017778
000390 1b 37 6c 3e e3 07 92 3e 42 45 03 3f 45 73 fc 3e
       0.23067896 0.28521642 0.51277554 0.49306694
0003a0 ba 56 df 3e c6 36 e0 3e 35 26 34 3e 7b ab 67 bd
       0.43620855 0.4379179 0.175927 -0.05656002
0003b0 f8 b8 06 be f1 47 2d 3b a2 85 2d 3e 47 2d 81 bd
       -0.13156497 0.0026440585 0.16945508 -0.06307464
0003c0 dc fa 9c bd b8 3b a1 3e 86 cc ab 3e a7 43 b5 3e
       -0.07665035 0.31490874 0.33554476 0.35403177
0003d0 73 93 30 3e 7b 9c 9a 3e b9 63 55 3e 2e 02 86 3e
       0.17243747 0.3019751 0.20838822 0.26173538
0003e0 3b 51 66 3e fd ae c2 3e 8e 02 bc 3e ca 4d 9e 3e
       0.22491924 0.3802413 0.367207 0.30918723
0003f0 1b 49 86 3e 6a 89 91 3d 10 e1 09 3e db 18 92 3e
       0.2622765 0.07106288 0.13464761 0.28534588

bias f4 [128]
000000 b3 a6 07 3f b1 c6 0f 3f 1c 8e e8 3e 89 ad ee 3e
       0.5298874 0.56162554 0.4542092 0.46616772
000010 10 32 8e 3d 02 f2 04 3f d5 42 fa 3e 7d 66 ea 3e
       0.069431424 0.51931775 0.48879114 0.45781317
000020 c5 b8 08 3f 7e 95 10 3f fe 52 0f 3f b9 13 ee 3e
       0.53406936 0.56478107 0.5598601 0.46499422
000030 79 c5 da 3e cc e2 e5 3e ae 29 d2 3e 54 89 d2 bd
       0.42728785 0.44899595 0.41047424 -0.102800995
000040 39 92 05 3f 41 76 f8 bb da cd 0f 3f 6a 30 e5 3e
       0.52176243 -0.0075824563 0.5617348 0.447635
000050 e9 a1 07 3f 59 5e 0c 3f f3 fb 77 3e 31 e8 cd ba
       0.5298143 0.54831463 0.24217205 -0.0015709457
000060 b1 5a 15 3f 35 64 11 be dc 3b f7 3e 0b eb 8b be
       0.5834151 -0.14198382 0.48287857 -0.2732776
000070 60 d8 9c bd 75 1f 23 3f 46 8b cf 3e 57 08 14 3f
       -0.07658458 0.63719875 0.40535945 0.57825226
000080 f1 62 de 3e 1e 8f ea 3e d1 96 ef 3e 2d b4 9f bc
       0.4343486 0.45812315 0.4679475 -0.019495094
000090 a7 f0 06 3f 4b e6 13 be 6c 7f 72 3e b1 1c 09 3f
       0.52710956 -0.14443319 0.2368142 0.53559405
0000a0 40 e0 20 3f 14 4a 06 3f b2 2d 15 3f 78 92 0d 3f
       0.6284218 0.52456784 0.5827285 0.5530162
0000b0 65 04 fa 3e 52 47 ea 3e 25 d1 0a 3f d1 a9 ec 3e
       0.48831478 0.45757538 0.5422538 0.4622331
0000c0 b7 bd dc 3e 7d 56 11 3f e9 cc 07 3f 8b 9d 15 3f
       0.4311349 0.56772596 0.53047043 0.58443516
0000d0 0d 55 13 3f 72 ac 40 bd 8b c0 37 be 4b 60 ca 3e
       0.5755165 -0.047039457 -0.17944543 0.3952659
0000e0 fb 45 02 3f 8c 0c 9b 3e 05 1e fc 3e c0 1e 13 3f
       0.5088803 0.3028301 0.49241653 0.57468796
0000f0 4b d4 91 3e c8 e3 1c 3e 08 8b f4 3e 92 f1 0e 3f
       0.2848228 0.15321267 0.47762322 0.5583736
000100 64 e6 ef 3e ac eb 08 3f ed 34 d2 3e 23 f0 f6 3e
       0.46855462 0.53484607 0.41056004 0.48230085
000110 48 1f 0c 3f c1 72 f1 3e fd 3f e4 3e f2 66 c3 3e
       0.5473523 0.47157863 0.4458007 0.3816448
000120 0f ca 06 3f 81 c7 ed 3e 83 ad d6 3e 9e 4a ef 3e
       0.52652067 0.46441272 0.41929254 0.46736616
000130 c6 01 05 3f dd 51 ca bd 9d 82 fe 3e c8 78 06 3f
       0.5195583 -0.098788954 0.49709025 0.5252805
000140 60 be 08 3f 00 d2 ec 3e 0d db fc 3e 8f f9 08 3f
       0.5341549 0.46253967 0.49385872 0.53505796
000150 de 32 47 3e 45 a3 d1 3e 60 2a 0e be 14 2f 05 3f
       0.19452998 0.40944877 -0.13883352 0.5202496
000160 a6 f6 0e 3f 1a 68 e0 3e 84 0c d0 3e 05 f0 1f 3f
       0.55845106 0.43829423 0.4063455 0.62475616
000170 ad 7c 05 3f 87 47 1a 3f a5 2c 0a 3f 9d 22 11 be
       0.52143365 0.6026539 0.5397437 -0.1417336
000180 44 57 ea 3e bd 3b 06 3f 9b fe cf 3e f3 a2 e8 3e
       0.45769703 0.52434903 0.40623936 0.4543682
000190 60 a9 04 3f ac ec fe 3e a7 85 fa 3e d6 a3 fc 3e
       0.51820946 0.4978994 0.48930094 0.49343747
0001a0 f4 77 ff 3e f5 45 e6 3e c2 38 0e 3f 21 c6 03 3f
       0.49896204 0.44975248 0.55555356 0.51474196
0001b0 5b d9 15 3f 7c 3e 18 be 75 e5 fc 3e 11 dc c8 3e
       0.58534783 -0.14867586 0.49393812 0.39230397
0001c0 79 9a 01 3f dd 4a 0f 3f 02 15 ac 3e cd 6c 11 3f
       0.5062633 0.5597361 0.33609778 0.5680664
0001d0 f8 52 f3 3e 11 31 15 3f b1 69 1b 3f 8e 7c 0a 3f
       0.47524238 0.58277994 0.6070815 0.54096305
0001e0 5a 3c 02 3f 8d 45 d3 3d 46 30 b6 3b 43 b7 10 3f
       0.5087334 0.10316 0.005559954 0.56529635
0001f0 85 a8 f8 3e 99 c9 02 3f a5 56 e8 3e 1c c4 b3 3e
       0.4856607 0.51088864 0.45378605 0.35110557

weight f4 [1, 128]
000000 62 7a 0c 3f bf c9 ef 3e 91 1b ee 3e 02 ea d7 3e
       0.5487424 0.46833608 0.46505406 0.4217072
000010 a6 4c 8b 3d a0 78 00 3f de 63 05 3f f3 8f fe 3e
       0.06801729 0.5018406 0.5210551 0.497192
000020 59 3a f3 3e fd e8 fe 3e 74 e6 fb 3e 23 34 05 3f
       0.47505453 0.4978713 0.4919926 0.5203268
000030 cd 7b f8 3e b6 c4 da 3e 33 aa 00 3f 94 06 3a bc
       0.48531953 0.42728204 0.50259703 -0.011354107
000040 32 86 06 3f 9d 0d 42 bd 3d e9 ea 3e 91 2c ff 3e
       0.52548516 -0.047376264 0.45881072 0.4983869
000050 af 32 fa 3e 5f 56 e7 3e 46 e2 d6 3e c2 79 37 bc
       0.48866794 0.45183083 0.41969508 -0.011198463
000060 87 4b e8 3e dc 68 2e 3c b0 86 e9 3e b8 1d 28 be
       0.45370123 0.010645118 0.4561057 -0.16417587
000070 00 09 cb bc 48 da e9 3e 3a 5b 02 3f ad 66 db 3e
       -0.024784565 0.45674348 0.5092045 0.42851773
000080 73 c6 f1 3e 58 20 00 3f 44 4d f1 3e c0 84 01 bc
       0.47221717 0.5004935 0.47129261 -0.007905185
000090 5c 73 f7 3e 89 1a c5 ba 28 0c cb 3e e9 06 f4 3e
       0.483302 -0.0015037815 0.39657712 0.47661522
0000a0 98 53 ec 3e 46 5e 0a 3f a7 c5 04 3f df 07 ff 3e
       0.46157527 0.540501 0.51864094 0.49810693
0000b0 f4 05 07 3f 90 80 02 3f 90 ab 0c 3f 69 a8 fd 3e
       0.5274346 0.5097742 0.54949284 0.4954255
0000c0 8e 8b fa 3e 9c 8e fb 3e 36 8f f3 3e fd 89 dd 3e
       0.48934597 0.4913224 0.475702 0.4326934
0000d0 dc 96 f0 3e 57 b9 4d bc 7d 09 26 bd c3 01 09 3f
       0.46990097 -0.0125563955 -0.040536392 0.53518313
0000e0 a9 e6 05 3f 65 76 07 3f 44 66 02 3f cc 21 08 3f
       0.52305084 0.5291503 0.50937295 0.5317657
0000f0 0b 24 c7 3e 89 9d 98 3e 49 07 ea 3e 81 f1 eb 3e
       0.38894686 0.2980769 0.45708683 0.4608269
000100 ac 1f 04 3f ea f9 00 3f 76 98 e5 3e c9 7c 00 3f
       0.5161083 0.5038134 0.4484288 0.5019041
000110 d1 f5 f1 3e 05 c2 fe 3e de 36 01 3f f5 0f de 3e
       0.47257856 0.497574 0.50474346 0.4337155
000120 0e b9 f1 3e d7 1c f8 3e a5 9d 1e 3f 78 a2 fa 3e
       0.47211498 0.48459503 0.61959296 0.4895208
000130 d2 43 01 3f a7 23 88 bc 64 20 01 3f 37 06 ea 3e
       0.5049411 -0.016618563 0.5044005 0.45707867
000140 ac 18 ea 3e a0 5f f3 3e 23 e0 f3 3e 5f 67 fd 3e
       0.45721948 0.47533894 0.4763194 0.49492928
000150 62 14 50 3e 71 c7 f7 3e 33 7d 41 bd b2 cc 04 3f
       0.20320275 0.4839435 -0.04723854 0.5187484
000160 de b4 02 3f 75 65 06 3f 6a 9b b9 3e 7f ad dd 3e
       0.5105723 0.5249856 0.36251384 0.4329643
000170 e5 8e f8 3e 03 88 08 3f 5a e6 f7 3e 73 5e 60 bd
       0.4854652 0.5333254 0.48417932 -0.054777574
000180 e0 1a f3 3e 23 bc 02 3f 2f 19 e0 3e a0 a1 f9 3e
       0.47481441 0.51068324 0.43769214 0.48756123
000190 8d 9a eb 3e 31 63 f2 3e 8b a3 f9 3e 58 b7 fc 3e
       0.4601635 0.47341302 0.48757586 0.4935863
0001a0 b3 bf fe 3e c6 93 f4 3e 7d 01 e2 3e bd 1d fc 3e
       0.4975563 0.47768992 0.4414176 0.49241439
0001b0 ce 85 f4 3e d4 2f 1f bd c3 f5 e4 3e fb 98 f8 3e
       0.47758335 -0.03886397 0.4471875 0.48554215
0001c0 1b 59 fa 3e 40 5f 06 3f 92 cb 00 3f a9 c1 09 3f
       0.48896107 0.5248909 0.50310624 0.53811127
0001d0 45 32 fa 3e f2 47 f5 3e 69 b0 f0 3e e5 dd f4 3e
       0.48866478 0.47906452 0.4700959 0.47825542
0001e0 bc a5 f0 3e 0f 70 eb 3d 9d 3b 2a 3c b8 4d f4 3e
       0.47001445 0.11495983 0.0103901895 0.47715545
0001f0 40 60 07 3f c1 1d f6 3e 7e fc f4 3e d4 09 e1 3e
       0.5288124 0.48069575 0.47848886 0.4395281
