kaggle_assignment/models/pytorch_bin_default_card.pt (torch, 97747 bytes, 3 tensors)

weight f4 [256, 91]
0.052827936 -0.036664624 -0.069410466 0.065322354 -0.025468213 0.08767269 0.000566379 0.0773505
0.014722931 0.07262428 -0.011278018 0.026152242 0.06250138 0.12518452 0.035379574 0.05172713
0.038409885 -0.008296713 0.05011573 0.117038876 0.12062924 0.071921065 0.056722414 0.17593408
0.04174886 0.080989316 0.042711765 0.08352687 0.08245384 0.06934375 -0.0696712 -0.13076444
-0.15015127 -0.1684588 -0.033542145 0.012175931 -0.094349496 -0.053930286 0.016218811 0.0077181463
0.060453266 0.08136428 0.06415333 -0.031459022 0.13388905 -0.028295018 -0.05522706 0.03597322
0.018918907 0.13792518 0.069544084 -0.060099784 -0.025578504 0.013669664 -0.05272822 -0.004173744
0.041165605 0.046078514 -0.04264594 -0.06580526 0.10422201 0.08615405 0.0033471943 -0.16022134
-0.022831421 0.00996059 -0.15427014 0.11277722 0.01852481 -0.10155164 -0.045432918 0.023241691
0.08400048 0.022604935 -0.013385253 -0.04726325 -0.038654406 -0.008807436 0.07203692 0.01036024
-0.092612274 -0.09843473 0.057723165 0.112267695 0.032178484 -0.060666047 0.09940509 0.0682765
-0.03446362 0.053190526 0.0074937423 0.061396305 0.03963299 0.0012608793 0.020659037 -0.026753727
-0.118904635 -0.0009287384 0.023632325 0.067150995 0.072244525 -0.0695657 0.031975135 -0.008876886
-0.10773241 -0.1184578 0.047508895 0.2572343 0.06877484 -0.066618524 -0.1799698 0.18216623
0.22657311 0.0018787144 0.20782487 0.010867242 0.04226089 0.038579807 0.14011668 0.18848178
0.075667426 -0.0036902525 -0.418201 0.05004464 -0.016442636 0.009919132 0.12715194 -0.017036809
-0.02773894 -0.17543377 0.01125191 0.028407851 0.32158515 -0.07486978 -0.11155274 -0.07355097
0.0019599264 -0.11688526 0.011806662 -0.10071765 -0.03432996 0.020109605 0.1304177 0.012680532
-0.09860961 -0.0029967476 0.044482857 -0.0049604364 -0.008348678 0.13149038 0.13245219 0.005752369
-0.0143824145 0.080482155 0.055558223 -0.26741537 0.04006779 0.0110994475 0.020991182 -0.042965773
0.16681123 -0.040114734 -0.042469587 0.056619886 -0.07827148 -0.16100134 -0.19294071 -0.09445127
0.11774106 0.029704576 0.069903046 0.08378958 0.061440986 -0.033002153 0.11164671 -0.058412243
-0.10946217 -0.010635574 0.11116392 0.053020388 0.122090206 -0.039663475 -0.08733478 0.024993882
-0.05431232 0.06246785 -0.09726102 0.048059132 0.042185374 0.09075939 0.13271771 -0.18580052
0.1349013 0.008180994 -0.035473287 -0.030746076 0.019020269 -0.10644771 -0.07937894 0.07886779
-0.1722916 -0.0460935 -0.080686934 -0.06434289 0.041895054 -0.11147422 -0.13477965 -0.00903082
-0.0026811792 -0.058813933 0.10728672 -0.1258015 -0.18888523 0.06984157 0.060821068 0.2741804
-0.084405884 -0.14034314 0.13511887 0.06949509 -0.023081291 0.040678274 -0.09399168 -0.018348023
-0.0024255253 0.070296854 -0.11403229 -0.0492426 0.19023508 -0.063359864 0.05726017 -0.11668291
0.020864973 0.09426375 -0.03350106 0.028940177 0.016335754 0.061325517 0.14718324 -0.07091627
0.07647617 -0.09641716 -0.04281416 -0.017495247 0.032045614 0.16663264 0.0101960655 0.13279259
0.11834897 -0.018096514 0.13464023 0.06747132 0.08648175 0.059373483 0.029101873 -0.06607103
00000000: 1b62 583d a52d 16bd 1327 8ebd bac7 853d
00000010: b7a2 d0bc bd8d b33d 0d79 143a f069 9e3d
00000020: 7338 713c 0abc 943d 70c7 38bc 3a3d d63c
00000030: b900 803d 5f30 003e 2cea 103d d4df 533d
00000040: af53 1d3d f0ee 07bc 2746 4d3d 14b2 ef3d
00000050: 770c f73d 5a4b 933d c355 683d 1028 343e
00000060: da00 2b3d badd a53d 88f2 2e3d 2310 ab3d
00000070: 8fdd a83d 1904 8e3d c6af 8ebd 1de7 05be
00000080: 41c1 19be 7780 2cbe 7d63 09bd 8e7d 473c
00000090: 4f3a c1bd 01e6 5cbd 50dd 843c 81e8 fc3b
000000a0: d89d 773d 51a2 a63d d262 833d 2ddb 00bd
000000b0: 361a 093e f4ca e7bc c535 62bd a858 133d
000000c0: d3fb 9a3c 423c 0d3e 216d 8e3d 312b 76bd
000000d0: 038a d1bc baf6 5f3c 8cf9 57bd e7c3 88bb
000000e0: 449d 283d d3bc 3c3d 82ad 2ebd e8c4 86bd
000000f0: 5972 d53d 8971 b03d 9a5c 5b3b 1011 24be
00000100: f608 bbbc be31 233c fef8 1dbe bef7 e63d
00000110: 58c1 973c 4efa cfbd de17 3abd 5c65 be3c
00000120: 7208 ac3d fc2d b93c d24d 5bbc 1c97 41bd
00000130: 1554 1ebd 104d 10bc 1888 933d ffbd 293c
00000140: 81ab bdbd 2698 c9bd 206f 6c3d 9bec e53d
00000150: 96cd 033d f67c 78bd e594 cb3d 8dd4 8b3d
00000160: ba29 0dbd 4fde 593d 118e f53b b17a 7b3d
00000170: 3456 223d 1744 a53a 243d a93c a22a dbbc
00000180: 4684 f3bd 9476 73ba 9498 c13c 7686 893d
00000190: f0f4 933d 7678 8ebd 5cf8 023d 5c70 11bc
000001a0: cfa2 dcbd 019a f2bd b098 423d 37b4 833e
000001b0: d3d9 8c3d 4b6f 88bd 014a 38be c989 3a3e
000001c0: c802 683e 323f f63a 0bd0 543e 840c 323c
000001d0: c119 2d3d dc05 1e3d bf7a 0f3e 5e01 413e
000001e0: 86f7 9a3d 2ad8 71bb 711e d6be 9cfb 4c3d
000001f0: b5b2 86bc db83 223c 1e34 023e c790 8bbc
00000200: c63c e3bc e9a4 33be ee59 383c 95b7 e83c
00000210: cfa6 a43e 5455 99bd c375 e4bd e4a1 96bd
00000220: 1c72 003b 8a61 efbd bb70 413c 0e45 cebd
00000230: 929d 0cbd e6bc a43c 388c 053e 02c2 4f3c
00000240: d6f3 c9bd 1565 44bb a833 363d 288b a2bb
00000250: e5c8 08bc 6aa5 063e 8ca1 073e 5e7e bc3b
00000260: 38a4 6bbc d4d3 a43d 0591 633d abea 88be
00000270: 1f1e 243d 75da 353c b3f5 ab3c e1fc 2fbd
00000280: 90d0 2a3e 594f 24bd 97f4 2dbd 41ea 673d
00000290: cc4c a0bd 89dd 24be 4092 45be ab6f c1bd
000002a0: 3a22 f13d 0357 f33c 5429 8f3d df99 ab3d
000002b0: 8ba9 7b3d 442d 07bd 08a7 e43d ad41 6fbd
000002c0: b42d e0bd d540 2ebc e9a9 e33d e82b 593d
000002d0: 6e0a fa3d 2b76 22bd 94dc b2bd f8bf cc3c
000002e0: 9876 5ebd 4ade 7f3d c930 c7bd a7d9 443d
000002f0: 92ca 2c3d 0fe0 b93d 27e7 073e 7e42 3ebe
00000300: 9123 0a3e 9309 063c 704c 11bd 32df fbbc
00000310: 65d0 9b3c 4201 dabd 6d91 a2bd 7085 a13d
00000320: 366d 30be 8acc 3cbd 313f a5bd 35c6 83bd
00000330: 269a 2b3d 994c e4bd ad03 0abe 01f6 13bc
00000340: b9b6 2fbb e1e6 70bd 24b9 db3d 1cd2 00be
00000350: 216b 41be 1909 8f3d 831f 793d 6061 8c3e
00000360: fedc acbd 1db6 0fbe 9a5c 0a3e 7153 8e3d
00000370: fa14 bdbc 439e 263d b67e c0bd 984e 96bc
00000380: 90f5 1ebb ccf7 8f3d c389 e9bd 9cb2 49bd
00000390: fccc 423e d1c2 81bd a489 6a3d 73f7 eebd
000003a0: 05ed aa3c 5a0d c13d 6838 09bd f313 ed3c
000003b0: 8fd2 853c 7730 7b3d 34b7 163e 8d3c 91bd
000003c0: 8a9f 9c3d 5c76 c5bd e75d 2fbd 3152 8fbc
000003d0: 4342 033d bfa1 2a3e 660d 273c c8fa 073e
000003e0: f260 f23d 243f 94bc 21df 093e 672e 8a3d
000003f0: 581d b13d 9c31 733d 0d67 ee3c 4050 87bd

bias f4 [256]
-0.007829822 0.044203226 0.056002915 0.07437015 -0.08558437 0.038899917 -0.019616323 0.012323258
-0.13344496 0.006015336 0.09063871 -0.005057483 -0.07594071 -0.1075879 -0.104410276 -0.008777621
-0.039646678 0.09025167 -0.027212417 -0.058818612 -0.10707786 0.0031968018 -0.03509151 -0.0880577
0.0035180622 0.06143853 0.009226605 -0.025610892 0.04365936 0.049578033 -0.026883809 -0.11247295
-0.07660217 0.038781404 -0.046731967 0.07751055 0.07336429 0.03686299 0.011912372 0.018631391
-0.011220894 0.078707136 0.10560889 -0.019532422 0.0880668 -0.005544139 0.069306724 -0.06474869
-0.09178358 0.032490347 -0.09266463 -0.021923108 0.02520516 -0.029862981 -0.047706645 -0.018773155
0.012082876 -0.0652725 -0.07032758 0.040296238 0.08832232 0.033084955 -0.11255297 -0.05281414
0.025923397 -0.07289463 0.098379165 -0.005818689 -0.100230604 0.027439218 0.030426588 -0.033535153
0.0074552284 -0.04212512 -0.027777871 -0.08268987 0.04855431 -0.0143977795 0.074389346 -0.06405073
0.0075113783 0.017187335 -0.031968847 0.03905785 -0.054391783 -0.099415995 -0.124975316 0.038233377
-0.0051167244 0.025922796 -0.050583232 0.019437576 0.05027073 0.10636593 -0.0017196075 -0.04460474
-0.08799336 -0.043132603 0.04568173 -0.045268517 -0.16378602 0.040397145 -0.08075818 0.016601259
-0.013568571 0.08663522 -0.043078586 0.111904696 0.07041338 -0.13377614 0.11012629 0.05068787
-0.018767834 0.11979345 -0.08608292 -0.008237026 0.014043196 -0.108609535 0.011700782 -0.048516396
0.024891276 0.07897088 -0.013441197 0.024833556 0.038989965 -0.0329404 -0.12121244 -0.04923939
0.051573236 0.059342463 -0.0967237 -0.01500793 0.033405423 0.040400706 -0.104364835 0.04977696
-0.064005874 -0.071409844 -0.0370665 0.056004286 -0.09317708 -0.07284485 0.0627241 0.0672002
-0.010736608 0.020683829 -0.06543157 -0.014534954 0.0067095673 -0.01786051 -0.039816927 0.07256522
-0.055976793 0.08520318 0.026047787 0.008757524 0.012845052 -0.051393602 -0.045174893 0.015193347
0.09927005 -0.07864329 0.008108105 -0.007782221 -0.02546207 0.057117034 0.13302797 -0.124219745
-0.011375924 0.036286402 -0.024472892 0.14733943 0.07273299 0.029588306 -0.044018198 0.1330007
0.02261785 -0.12886703 -0.04079361 -0.0069917934 -0.12010258 -0.00643175 -0.030512627 -0.011844769
-0.045919605 -0.056467038 0.11518743 -0.023820885 0.049422234 -0.09392743 0.02117758 0.0116948085
0.01671711 -0.042096898 -0.012359296 -0.09831332 0.097834766 0.08794181 -0.074900426 0.03227019
-0.07589559 0.060007963 -0.028339395 -0.027872082 -0.14677702 -0.08554892 -0.08260114 0.03412707
-0.10564613 0.046253342 -0.018974196 0.023792911 0.04063683 0.050016936 0.05383973 0.05778464
0.031944916 -0.0069309827 0.04885062 -0.016364308 -0.08082412 -0.076386 0.08989666 -0.11467668
-0.0354013 -0.02475395 -0.11073177 -0.042211156 -0.004271725 -0.029252764 -0.005709652 0.09763618
-0.037848003 0.043007605 0.010988076 -0.025301442 -0.07346959 -0.030450452 0.025702229 0.12340809
-0.0365534 -0.034207154 -0.0076850182 0.04386669 0.04477085 -0.10442799 0.02351981 0.05992735
-0.067944065 -0.05256432 0.052609738 -0.13917294 -0.081662 -0.05348704 -0.020633508 -0.086998515
00000000: a748 00bc 710e 353d 5063 653d 614f 983d
00000010: dc46 afbd 8555 1f3d 69b2 a0bc 7ee7 493c
00000020: cca5 08be 4c1c c53b caa0 b93d 3eb9 a5bb
00000030: ce86 9bbd 0b57 dcbd 0ed5 d5bd 03d0 0fbc
00000040: 8e64 22bd ded5 b83d 93ec debc c9eb 70bd
00000050: a34b dbbd 6f81 513b 1dbc 0fbd 9857 b4bd
00000060: 4a8f 663b f8a6 7b3d 302b 173c efcd d1bc
00000070: 28d4 323d 5612 4b3d 6f3b dcbc 3858 e6bd
00000080: 99e1 9cbd 40d9 1e3d 056a 3fbd dabd 9e3d
00000090: 0440 963d a6fd 163d 1c2c 433c dca0 983c
000000a0: d7d7 37bc 3531 a13d 7949 d83d 7502 a0bc
000000b0: 5e5c b43d 9cab b5bb aff0 8d3d f69a 84bd
000000c0: 08f9 bbbd 9914 053d f4c6 bdbd 1798 b3bc
000000d0: 0d7b ce3c 36a3 f4bc 0b68 43bd 29ca 99bc
000000e0: 41f7 453c 97ad 85bd e807 90bd ab0d 253d
000000f0: 55e2 b43d 1784 073d 2c82 e6bd a453 58bd
00000100: 4e5d d43c c849 95bd 047b c93d b3aa bebb
00000110: b445 cdbd 36c8 e03c 2e41 f93c 285c 09bd
00000120: fd4a f43b 648b 2cbd 6b8e e3bc 4e59 a9bd
00000130: e2e0 463d aae4 6bbc 7159 983d 072d 83bd
00000140: 0222 f63b 74cc 8c3c c4f1 02bd 20fb 1f3d
00000150: ebc9 5ebd 9d9a cbbd 0ff3 ffbd 9a9a 1c3d
00000160: 32aa a7bb 0b5c d43c 5d30 4fbd 8d3b 9f3c
00000170: aee8 4d3d 61d6 d93d 7464 e1ba 76b3 36bd
00000180: dd35 b4bd d0ab 30bd c41c 3b3d 7b6b 39bd
00000190: 86b7 27be 7a77 253d 8b64 a5bd 5dff 873c
000001a0: b64e 5ebc ce6d b13d 2c73 30bd 4a2e e53d
000001b0: e434 903d 9dfc 08be e489 e13d 159e 4f3d
000001c0: 00bf 99bc 4556 f53d 3e4c b0bd 97f4 06bc
000001d0: 6f15 663c ad6e debd a3b4 3f3c 21b9 46bd
000001e0: cae8 cb3c 7cbb a13d 7738 5cbc be6f cb3c
000001f0: f1b3 1f3d 83ec 06bd 3a3e f8bd 3eaf 49bd
00000200: 753e 533d 1511 733d 1317 c6bd d2e3 75bc
00000210: 20d4 083d 367b 253d 3bbd d5bd ede2 4b3d
00000220: 8315 83bd 533f 92bd 0bd3 17bd c064 653d
00000230: a0d3 bebd ae2f 95bd 7e75 803d 42a0 893d
00000240: 99e8 2fbc 2271 a93c fd00 86bd 0424 6ebc
00000250: eedb db3b 3450 92bc 1317 23bd 139d 943d
00000260: ec47 65bd 017f ae3d 2b62 d53c b87b 0f3c
00000270: 0e74 523c 1982 52bd 4f09 39bd 84ed 783c
00000280: 194e cb3d bc0f a1bd dbd7 043c 0002 ffbb
00000290: d595 d0bc 8df3 693d 7c38 083e ec66 febd
000002a0: 1562 3abc 0da1 143d 607b c8bc 26e0 163e
000002b0: 09f5 943d 2d63 f23c 6d4c 34bd 5631 083e
000002c0: 1249 b93c b8f5 03be 3317 27bd 6a1b e5bb
000002d0: 57f8 f5bd 6ec1 d2bb 9ef5 f9bc 9010 42bc
000002e0: 3216 3cbd fb49 67bd 63e7 eb3d 0424 c3bc
000002f0: f86e 4a3d 065d c0bd 9b7c ad3c 959b 3f3c
00000300: 52f2 883c cc6d 2cbd a57e 4abc 7e58 c9bd
00000310: 985d c83d d61a b43d 6565 99bd bf2d 043d
00000320: 266f 9bbd e9ca 753d 0528 e8bc fe53 e4bc
00000330: b74c 16be 4634 afbd c92a a9bd d4c8 0b3d
00000340: 005d d8bd 2574 3d3d c66f 9bbc 5ae9 c23c
00000350: ce72 263d 8fde 4c3d 0c87 5c3d 96af 6c3d
00000360: acd8 023d 4c1d e3bb 9617 483d 710e 86bc
00000370: 1e87 a5bd 4370 9cbd bd1b b83d 9bdb eabd
00000380: f400 11bd ccc8 cabc 57c7 e2bd 9be5 2cbd
00000390: d4f9 8bbb 7ea3 efbc 0818 bbbb 7af5 c73d
000003a0: 8206 1bbd be28 303d 5507 343c f844 cfbc
000003b0: 3977 96bd 3a73 f9bc 7b8d d23c 61bd fc3d
000003c0: 05b9 15bd cd1c 0cbd 9bd2 fbbb 8fad 333d
000003d0: a461 373d 58de d5bd 9eac c03c 6276 753d
000003e0: 4226 8bbd af4d 57bd 4f7d 573d 5a83 0ebe
000003f0: 683e a7bd 3a15 5bbd 9a07 a9bc 472c b2bd

weight f4 [1, 256]
-0.026949862 -0.11089772 0.07445652 -0.058170713 0.0065050186 0.018231012 0.065693796 -0.05941231
0.017850963 0.095750265 -0.051894523 -0.04907973 0.09846519 0.12235219 0.053671826 0.019643528
-0.089450374 0.1115488 -0.0378515 -0.029479327 0.13986841 0.06813816 -0.09017509 0.10378046
-0.06892384 0.052723832 -0.07956495 -0.064974114 0.09147149 -0.021169063 -0.10542845 0.0548408
0.16861446 0.032623272 -0.07626743 -0.046429936 -0.004667894 -0.041041855 -0.038044076 0.108531654
-0.05762389 -0.043212723 -0.019240312 0.049299534 -0.035514344 0.043881845 -0.053947937 -0.09126763
-0.10937338 0.042791653 0.21217388 0.12918223 -0.05963961 -0.05634702 -0.067181356 0.10608854
0.13456835 0.029765261 0.068530574 -0.041844834 -0.07000999 -0.0033801037 -0.0872419 -0.023854604
0.07159702 -0.08787404 -0.022105636 -0.026786761 0.033898264 0.10269919 0.04819948 -0.06804803
0.08193366 0.08525177 0.072543375 0.057900656 0.0508185 -0.05655559 -0.09295934 -0.027898664
0.08951865 -0.032118578 0.035394408 -0.027730674 -0.088109784 0.045982398 -0.00077367184 0.03810376
0.07563514 0.023401128 0.15559874 0.09713434 0.061776716 -0.047417894 0.058575626 -0.039873086
-0.09254184 -0.043632664 0.04073117 -0.026090143 0.004829333 0.12071464 -0.04394113 -0.035595074
0.1423129 -0.05412547 -0.10266388 -0.036895998 -0.14508362 0.05927317 -0.04527058 0.047607586
0.070463896 -0.07229222 0.11876094 0.053054612 -0.07009755 -0.107434675 0.030231787 0.028238874
-0.030751819 -0.041466624 -0.025832115 -0.08973056 -0.09756027 -0.09535636 0.102383785 -0.11750825
-0.0806038 -0.06150131 -0.11060757 -0.03925393 0.029184122 -0.046944756 0.06746976 0.1481677
0.13385962 0.13183707 -0.060630184 0.018444438 0.07644824 -0.058851432 -0.04121719 -0.0476102
0.09830676 0.08447373 0.08484163 0.09538633 0.004573156 0.07076023 -0.03321606 -0.08750082
-0.058050346 -0.01887529 -0.07368844 -0.062335134 -0.026210887 0.0476813 0.14793003 0.07395742
-0.029008701 0.043364577 -0.10133646 -0.081661485 -0.058624998 -0.023616469 -0.028492114 0.1539215
-0.031822864 -0.04811526 -0.053877074 -0.042338707 -0.09651166 -0.057434183 -0.07580662 -0.052164096
0.122435495 0.10157906 -0.08767837 -0.06066658 0.1540923 -0.037711572 0.07050095 -0.04677351
0.092013285 0.06557958 -0.050757125 0.13518484 -0.064246245 0.10824743 0.03221311 0.04769599
-0.061936233 -0.05276698 0.07074005 -0.1055855 -0.017908763 -0.028291848 0.09255063 -0.042214602
-0.07729658 -0.03068145 0.05593291 -0.060494363 0.13395733 0.07118707 -0.05522568 -0.07477469
0.08289853 0.0681953 0.1488129 -0.03403232 -0.06339999 -0.033514626 -0.033859473 0.06318814
-0.0633465 0.06264353 0.080514066 0.14177328 0.08731661 0.075567715 -0.036964275 0.10843885
0.043138813 -0.08911957 0.15991747 0.061354198 0.029224679 -0.055484656 -0.049471848 -0.058412217
0.097975954 -0.052996293 0.08949094 0.06772682 -0.06770856 -0.0582326 -0.053636726 -0.015326789
0.013353856 0.08342064 -0.018927326 -0.06409562 -0.06128451 0.026878713 0.099321134 0.09440622
0.081702314 0.12045182 -0.038865056 0.053770337 0.039462574 -0.04656511 0.09300925 0.10055161
00000000: f5c5 dcbc 581e e3bd a97c 983d 6a44 6ebd
00000010: 0d28 d53b 3459 953c 788a 863d 535a 73bd
00000020: 2f3c 923c b718 c43d 5a8f 54bd d407 49bd
00000030: 1ea8 c93d c993 fa3d fdd6 5b3d 77eb a03c
00000040: c231 b7bd b273 e43d 2d0a 1bbd a17e f1bc
00000050: aa39 0f3e 058c 8b3d b8ad b8bd da8a d43d
00000060: f127 8dbd f2f4 573d f3f2 a2bd 2611 85bd
00000070: 6855 bb3d be6a adbc dfea d7bd bfa0 603d
00000080: 45a9 2c3e fb9f 053d 1932 9cbd 512d 3ebd
00000090: 22f5 98bb 811b 28bd 1bd4 1bbd d845 de3d
000000a0: 0707 6cbd d3ff 30bd dc9d 9dbc 4fee 493d
000000b0: 7d77 11bd 73bd 333d 83f8 5cbd 86ea babd
000000c0: 27ff dfbd 4d46 2f3d 1c44 593e 5948 043e
000000d0: aa48 74bd 22cc 66bd 6196 89bd f344 d93d
000000e0: 49cc 093e 47d6 f33c c259 8c3d 7d65 2bbd
000000f0: 6661 8fbd bb84 5dbb e2ab b2bd bb6a c3bc
00000100: 75a1 923d 4ef7 b3bd e116 b5bc e96f dbbc
00000110: e8d8 0a3d f453 d23d d16c 453d c45c 8bbd
00000120: d6cc a73d 7b98 ae3d 9f91 943d 3d29 6d3d
00000130: 0f27 503d d6a6 67bd 7761 bebd bd8b e4bc
00000140: 8e55 b73d c58e 03bd baf9 103d 702b e3bc
00000150: e772 b4bd 0a58 3c3d 3dd0 4aba b012 1c3d
00000160: 99e6 9a3d b9b3 bf3c 4755 1f3e 5eee c63d
00000170: 9509 7d3d 4439 42bd ffec 6f3d f651 23bd
00000180: 9486 bdbd 2ab8 32bd bad5 263d ffba d5bc
00000190: 623f 9e3b 3d39 f73d 9dfb 33bd 24cc 11bd
000001a0: 79ba 113e abb2 5dbd 7141 d2bd 4220 17bd
000001b0: cd90 14be 6cc8 723d a56d 39bd 2c00 433d
000001c0: 604f 903d f20d 94bd f038 f33d cb4f 593d
000001d0: 4e8f 8fbd b606 dcbd a7a8 f73c 3655 e73c
000001e0: 3deb fbbc e8d8 29bd df9d d3bc a8c4 b7bd
000001f0: aecd c7bd 324a c3bd 97ae d13d 2aa8 f0bd
00000200: 9b13 a5bd cce8 7bbd 3986 e2bd bbc8 20bd
00000210: 8a13 ef3c 2549 40bd 962d 8a3d 46b9 173e
00000220: 7f12 093e 4c00 073e 5b57 78bd ca18 973c
00000230: e590 9c3d 330e 71bd 5bd3 28bd ea02 43bd
00000240: 0e55 c93d 9000 ad3d 73c1 ad3d e859 c33d
00000250: 6ada 953b bdea 903d 900d 08bd a133 b3bd
00000260: 33c6 6dbd 5aa0 9abc f7e9 96bd 2053 7fbd
00000270: 37b8 d6bc 784d 433d f87a 173e fd76 973d
00000280: a8a3 edbc 0e9f 313d 7d89 cfbd 233e a7bd
00000290: c420 70bd 5377 c1bc 4b68 e9bc 999d 1d3e
000002a0: b158 02bd 8214 45bd 35ae 5cbd 5a6b 2dbd
000002b0: e8a7 c5bd 1b40 6bbd 8040 9bbd 05aa 55bd
000002c0: 76bf fa3d af08 d03d b890 b3bd 857d 78bd
000002d0: 5fca 1d3e 7377 1abd cd62 903d 9495 3fbd
000002e0: 7671 bc3d 964e 863d b4e6 4fbd e56d 0a3e
000002f0: 8993 83bd d4b0 dd3d e5f1 033d df5c 433d
00000300: d9b0 7dbd 3022 58bd 29e0 903d 363d d8bd
00000310: 66b5 92bc 4ec4 e7bc 2f8b bd3d 38e9 2cbd
00000320: ab4d 9ebd aa57 fbbc e819 653d f0c8 77bd
00000330: 1c2c 093e 87ca 913d 5334 62bd 7923 99bd
00000340: b4c6 a93d faa9 8b3d 6962 183e 7965 0bbd
00000350: dbd7 81bd a246 09bd 3bb0 0abd c968 813d
00000360: cfbb 81bd 404b 803d 8fe4 a43d 042d 113e
00000370: 0dd3 b23d 3fc3 9a3d da67 17bd 3015 de3d
00000380: 53b2 303d 5284 b6bd 68c1 233e 8a4e 7b3d
00000390: 9868 ef3c e143 63bd fea2 4abd a641 6fbd
000003a0: 9ea7 c83d a412 59bd 0747 b73d 5cb4 8a3d
000003b0: c9aa 8abd 4f85 6ebd 2fb2 5bbd 361d 7bbc
000003c0: 22ca 5a3c 71d8 aa3d 7b0d 9bbc 9044 83bd
000003d0: 7705 7bbd bf30 dc3c e168 cb3d 0c58 c13d
000003e0: 8b53 a73d 72af f63d f730 1fbd 493e 5c3d
000003f0: 82a3 213d 0fbb 3ebd a27b be3d 01ee cd3d
